models/sepformer/sepformer.onnx (onnx, 8707 bytes, 1 tensors)

conv1d.weight f4 [128, 1, 16]
00000000: 0fcd bd3d 1142 163e d93f 313e b05c 253e
00000010: c86b eb3d fe62 933d 0b76 d53c 5cf2 e7bc
00000020: afc5 eabc b81f 96bd 2326 04be ac96 16be
00000030: 7e2d 03be 6e74 97bd fc8f abbc 4b0a a2bb
00000040: d12e cdbd 4b1d 523e 7ea7 c73d f732 80be
00000050: b997 81be 7664 753e 66f0 c73e 2f50 23bd
00000060: 2ce9 e4be 705d 6bbe cff7 bd3e e47e ce3e
00000070: 734b 58be 95b1 abbe ba51 9a3d 391d 043e
00000080: dd5c 423e 4d23 bf3d f326 b7bd b904 8dbe
00000090: 6da8 a4be 5f24 2ebe 9aa7 653d 4526 853e
000000a0: d9a7 c13e 2942 853e c9d9 753d 5dec 02be
000000b0: 34b5 40be b215 24be 005a 5bbd 5403 2abc
000000c0: 9182 0f3e 35a3 a9bc dbd2 49be 0c68 57be
000000d0: baf1 9fbd b773 7e3e 498a aa3e 417b 1a3e
000000e0: 2e46 02bd f534 92be b88c 6ebe 79cd cabd
000000f0: a921 393d e4cc ed3d 2269 3f3e 498e e43c
00000100: e0f5 bebd 406d 2d3e 8234 f83d 9c05 a9be
00000110: be71 50be 25c1 013f 2ef8 893e 6075 1ebf
00000120: d8fe 9abe 0329 1c3f 4c0d 8a3e eb82 febe
00000130: f0db 1bbe 8241 923e c2ad 4a3d 3b7f cbbd
00000140: d00c 3abd c8b2 63bd 3fee b4bd 9420 b2bd
00000150: 8569 733c f371 073e f5eb 7f3e 8a7c 823e
00000160: 2e52 c63d cfcb 31be 5829 a5be 16e3 a3be
00000170: db87 30be 1cb2 a03d ecd0 763e ce0f 583e
00000180: 9654 aebe 6c52 a2be dbc6 39be 8c1b 853c
00000190: 5ba3 223e 6191 403e 5840 443e 21d5 453e
000001a0: ca75 a33d 1765 1e3d 102c 75bc 8d84 6bbd
000001b0: fdc4 febd 8f5d 07be 3dc8 07be 652c bebc
000001c0: ad91 64bd 5c7a 8ebd 776e 923e 3d75 85bd
000001d0: bb9c cfbe d46f 8e3e 5266 ce3e f8a6 0dbf
000001e0: 2909 f9bd 9e1c 083f 3890 06be 673e 98be
000001f0: 1bd9 3c3e c88e b83d e6c8 e7bd 4717 c53c
00000200: 54c8 00be 094b 9cbd 62df 833d 86af 4f3e
00000210: 6d12 703e d044 ed3d ac4a 2cbd 27b4 3abe
00000220: 7deb 87be 5ec6 3bbe 3678 2abd d53f b73d
00000230: e754 033e a453 e73d 4618 153d 4f7e c03c
00000240: daf2 223e 2208 cbbc 0016 6dbe 0671 8bbe
00000250: d627 3ebd 7a0e 863e 1eb1 da3e d6f4 a13e
00000260: 59bf 0ebd 77d1 a9be 6071 d0be 108c 82be
00000270: de64 1c3c 05fd 453e 1814 663e 3279 703d
00000280: 0c3f 9d3c 32ed 4c3c af98 07be 856d 3f3e
00000290: a148 0f3c 5f82 acbe 5101 b13e 773d 4a3e
000002a0: 247d 20bf 8992 4e3e 5f3d 133f e3e0 14bf
000002b0: f28f a8bd a12e bb3e e9b1 f0bd ba80 07bd
000002c0: 110e fdbd a27c 8f3c c107 353e 8408 3f3e
000002d0: 0168 8c3d c56d 63be e980 96be b34c 05be
000002e0: e52d d83c 02fa 823e f0b4 523e 6270 af3d
000002f0: 9020 19bd 2abc dabd b461 29be 8bbd aebc
00000300: d82c 273d 5396 403d 9f11 50be d9a7 4d3d
00000310: 8332 923e 4bd2 4cbe 518e 90be 70b1 c83e
00000320: 59dc aa3d 87bd bfbe 2461 c03d 4b63 553e
00000330: 02da 04be 2b68 80bd c057 a13d b67d 8abc
00000340: 9b89 2cbe 213f 8abe 0d8c a2be af2f 94be
00000350: 248a 5dbe 924c 01be 6052 36bd e2df 353d
00000360: 6fd2 633d 3eac 0b3e d502 6e3e 2714 893e
00000370: d74f 713e cbc4 0c3e 1cf0 2f3d 891d b2ba
00000380: eefb 7b3d 6733 3fbd ecb4 dabd 8bbc cd3c
00000390: d87e 433e 832d fd3c ddc9 61be 67ba 1ebe
000003a0: 22d0 583e 093c 5a3e b47a d9bd 6efa 61be
000003b0: df52 b43c 8397 1a3e 6843 393c dfc3 84bd
000003c0: 9ce4 433d d711 a3bd 9cad 86bd 4700 bc3d
000003d0: 5b0c 263e 94f5 b8bd a4b3 6fbe 720c 003c
000003e0: 595f 883e c748 7a3d fd88 42be 0cd6 fbbd
000003f0: 2b01 cf3d e552 d33d dbb3 14bd 9bf1 1cbd
0.092676274 0.1467364 0.17309512 0.16148639 0.11495167 0.07196616 0.026057264 -0.028313808
-0.028658716 -0.073302686 -0.12905173 -0.14705914 -0.12810323 -0.07395254 -0.02094268 -0.0049450747
-0.10018695 0.20518987 0.097487435 -0.25038883 -0.25311068 0.23964104 0.39050597 -0.03987139
-0.44709146 -0.22984862 0.37103125 0.40331185 -0.21122532 -0.33533922 0.07535119 0.12901773
0.18980737 0.09332905 -0.08942976 -0.27542666 -0.3215975 -0.17006062 0.05606804 0.2600576
0.3782337 0.2602704 0.06002215 -0.12785478 -0.18819124 -0.16023901 -0.053552628 -0.01037677
0.14014651 -0.020707706 -0.19709341 -0.21035784 -0.078097776 0.24848829 0.33308628 0.1508608
-0.03180521 -0.28556028 -0.23295867 -0.09902472 0.045198116 0.116113454 0.18692449 0.027899878
-0.09324241 0.16936207 0.1211939 -0.33012092 -0.20355889 0.5068534 0.2694716 -0.6189785
-0.30272555 0.6100008 0.2696327 -0.49709257 -0.15220618 0.28565603 0.049482115 -0.09936377
-0.045422375 -0.05559042 -0.08834504 -0.0869762 0.014856701 0.13227062 0.24992354 0.2548564
0.09683643 -0.17362903 -0.32258105 -0.3200919 -0.17239325 0.07846472 0.24103135 0.21099779
-0.3404891 -0.31703508 -0.18142264 0.016248487 0.15882628 0.18805458 0.1916517 0.19319583
0.07981451 0.038670626 -0.014964119 -0.057499457 -0.12439916 -0.13219284 -0.13259979 -0.023214528
-0.05580299 -0.06956932 0.28599903 -0.06516502 -0.40549263 0.27819693 0.4031244 -0.553329
-0.1215995 0.53168666 -0.13140953 -0.2973511 0.18442194 0.09011608 -0.11317615 0.024058951
-0.12576419 -0.07631499 0.06439091 0.202818 0.23444529 0.115853906 -0.0420634 -0.18232785
-0.2654685 -0.1833739 -0.04161855 0.08947722 0.12825356 0.1129525 0.036400102 0.023497729
0.15912953 -0.024784151 -0.23152924 -0.27234668 -0.04642471 0.2618292 0.42713255 0.31632107
-0.034850452 -0.33167621 -0.40711498 -0.25497484 0.009545533 0.193348 0.22468603 0.05870933
0.019195102 0.012507724 -0.13241838 0.18694122 0.008745343 -0.33693215 0.34571317 0.1975001
-0.6269095 0.20173086 0.5751552 -0.5815565 -0.082305804 0.36559013 -0.11752684 -0.033081748
-0.123561986 0.017515484 0.17678739 0.18655592 0.06855775 -0.22209843 -0.29395226 -0.1301754
0.026389072 0.25581366 0.20576835 0.08566357 -0.03738457 -0.10680421 -0.16541177 -0.021330616
0.04081425 0.04701836 -0.20319222 0.0502089 0.28554162 -0.20002095 -0.2823358 0.39197874
0.08342809 -0.37449285 0.09393528 0.20838659 -0.12973788 -0.062698685 0.07878065 -0.016905647
-0.16849367 -0.2700129 -0.31747475 -0.2894263 -0.21634728 -0.12626866 -0.044512153 0.044402964
0.055620607 0.13639924 0.23243268 0.26773188 0.23565613 0.13746946 0.042953596 -0.0013589124
0.061519556 -0.04667988 -0.10679039 0.025114318 0.19091356 0.03090549 -0.22049661 -0.15500794
0.21173146 0.21311964 -0.10619107 -0.22068188 0.022012172 0.1509686 0.011307575 -0.06482672
0.04782544 -0.07962387 -0.06576082 0.091797404 0.1621565 -0.09031215 -0.23408371 0.007815467
0.26635244 0.061104562 -0.1899757 -0.122966856 0.10107645 0.10318545 -0.036304336 -0.03831635
